04-feedforward-nn/mnist-feedforward.pth (torch, 103567 bytes, 4 tensors)

linear1.weight f4 [32, 784]
-0.02152131 0.008409992 0.028232481 -0.022638168 0.021418016 0.03188738 -0.013885587 0.015990809
0.0071337298 0.010355815 0.011860732 -0.031906247 -0.0056572985 0.024952892 0.02432932 0.028603729
0.022504989 0.028450597 -0.00584851 0.020544045 0.016261704 0.012940522 -0.025393393 -0.026709255
-0.021271583 0.010687161 0.0018052869 -0.0313944 0.024144795 -0.029170727 0.015685588 -0.023136294
0.02461932 0.014812634 0.040312313 0.02649498 -0.0020141054 0.01888845 -0.0014510183 0.030411541
0.045445662 0.0058931373 0.004079376 0.027043296 -0.006106523 -0.018416991 0.043549355 -0.017976983
0.0034279758 -0.012737521 -0.025163475 0.029096944 -0.013783084 0.007401988 -0.01142115 0.014478646
-0.028186254 0.003134314 -0.010145455 -0.033440396 -0.0035891782 -0.0130253825 0.021014323 0.04800961
0.054154452 0.036718737 0.016960928 0.08719249 0.09378117 0.05831951 0.08748367 0.05574004
0.04328249 0.047714368 0.043520235 0.06861981 0.07605917 0.018756233 0.02692089 0.044412013
0.015381677 0.028044129 0.025084808 0.013788074 -0.028154902 -0.029850297 0.019372683 0.021026235
0.0008408313 0.018280977 0.02605868 0.05123351 0.08539408 0.06869319 0.04006011 0.06751813
0.027309159 0.0014872308 0.007179989 0.009938301 -0.024064695 -0.0020152195 0.07081286 0.100166395
0.10087875 0.1496594 0.11453787 0.028970812 0.04865714 0.03268551 -0.023230541 0.03196771
0.004126735 -0.008515107 -0.0015476495 0.011187813 0.03712615 -0.0015265294 0.023884488 -0.0059597855
0.055808365 0.07637828 0.04527084 -0.05632616 -0.036320325 -0.006280827 -0.016070273 -0.10287703
-0.08027521 0.031092197 0.07071808 0.16035801 0.17313044 0.16581164 0.124837644 0.11848105
0.020453548 -0.011125617 0.0077897846 -0.014862912 0.026734527 0.029051397 -0.024404045 0.019307861
0.01056595 -0.041285254 -0.038958624 -0.051795125 -0.025165929 0.03763494 -0.022821717 -0.07286472
0.015017997 -0.026412958 0.04549236 -0.03938289 0.02449503 0.00029564774 0.038591787 0.094894
0.17508435 0.15201212 0.14712639 0.16474803 0.10645593 0.017535293 -0.001978761 0.03227515
-0.024311204 0.005637375 -0.021120282 0.006069823 -0.051965572 -0.07307628 -0.09201063 0.00016841189
-0.042587344 -0.007439962 -0.042369105 -0.000117744195 0.07324716 -0.08205043 -0.019346248 -0.019761961
-0.20695375 -0.21075335 -0.26220185 -0.09489515 -0.115349434 -0.16502944 -0.03592476 0.08816389
0.18365823 0.054572575 0.0036638405 0.019452842 -0.024560269 -0.034901205 -0.02829062 -0.008737673
-0.008554866 -0.053787295 -0.047670275 -0.012423717 0.02260093 0.0074309614 0.05559049 0.06763201
-0.100603186 -0.14184393 -0.12577808 -0.24297185 -0.31969187 -0.2769727 -0.29302505 -0.32814053
-0.2862282 -0.17982177 -0.13674076 0.047825024 0.18957527 0.09202127 0.03736547 0.038136113
-0.002260752 0.01586638 0.017372755 -0.04664568 -0.0479093 -0.046976402 -0.073767364 -0.051587123
-0.004264595 0.05490695 -0.024611818 -0.0058014547 -0.08854148 -0.15998727 -0.20537488 -0.35320076
-0.41953847 -0.3256526 -0.34843534 -0.27252543 -0.11321322 -0.13128804 -0.12253249 0.010687349
0.13231832 0.052550714 0.046039224 -0.023688901 0.013525603 -0.018833376 -0.009410999 -0.04758679
00000000: 754d b0bc 10ca 093c ce47 e73c ae73 b9bc
00000010: d674 af3c 579c 023d 6080 63bc 28ff 823c
00000020: 10c2 e93b 70ab 293c 8453 423c 20b0 02bd
00000030: dc60 b9bb 026a cc3c 484e c73c 5e52 ea3c
00000040: 625c b83c 3a11 e93c dca4 bfbb fc4b a83c
00000050: 4437 853c 7c04 543c ce05 d0bc 5ecd dabc
00000060: be41 aebc 3419 2f3c 609f ec3a 6a97 00bd
00000070: 4ecb c53c 73f7 eebc 107f 803c 5388 bdbc
00000080: 75ae c93c b1b0 723c 861e 253d 000c d93c
00000090: 15ff 03bb f3bb 9a3c 1830 beba a021 f93c
000000a0: 3b25 3a3d 381b c13b 49ac 853b e789 dd3c
000000b0: 3a19 c8bb 3bdf 96bc cf60 323d 7744 93bc
000000c0: e4a7 603b 09b1 50bc a223 cebc b75c ee3c
000000d0: 72d2 61bc 608c f23b c61f 3bbc d837 6d3c
000000e0: dce6 e6bc 1069 4d3b 1f39 26bc ccf8 08bd
000000f0: 6b38 6bbb 6a68 55bc 3b26 ac3c baa5 443d
00000100: 0fd1 5d3d 6366 163d a5f1 8a3c fa91 b23d
00000110: 5810 c03d 70e0 6e3d a32a b33d ab4f 643d
00000120: fb48 313d 2470 433d 4642 323d 8b88 8c3d
00000130: e9c4 9b3d aca6 993c 3389 dc3c 5fe9 353d
00000140: 6e03 7c3c cdbc e53c a87e cd3c 60e7 613c
00000150: 1ca5 e6bc 9c88 f4bc 76b3 9e3c 363f ac3c
00000160: 3c6b 5c3a fdc1 953c 0379 d53c 3bda 513d
00000170: 17e3 ae3d 04af 8c3d 1216 243d f246 8a3d
00000180: 75b7 df3c 2fef c23a 1d46 eb3b 41d4 223c
00000190: 5323 c5bc c611 04bb 5506 913d 0a24 cd3d
000001a0: 8599 ce3d 5040 193e d592 ea3d 3254 ed3c
000001b0: b64c 473d 3ee1 053d fa4d bebc 93f0 023d
000001c0: 9039 873b f382 0bbc 80da caba 174d 373c
000001d0: 9711 183d d415 c8ba 67a9 c33c 4e4a c3bb
000001e0: 5097 643d 376c 9c3d eb6d 393d 42b6 66bd
000001f0: 9fc4 14bd 65cf cdbb cea5 83bc 31b1 d2bd
00000200: 5467 a4bd 10b5 fe3c a4d4 903d e434 243e
00000210: 1b49 313e 87ca 293e e1aa ff3d 31a6 f23d
00000220: 338e a73c 3848 36bc 7341 ff3b 9283 73bc
00000230: 5e02 db3c 32fd ed3c feea c7bc 852b 9e3c
00000240: ce1c 2d3c ba1a 29bd 1493 1fbd 2027 54bd
00000250: c728 cebc 1827 1a3d 9cf4 babc 193a 95bd
00000260: 0b0e 763c fd5f d8bc 3256 3a3d f44f 21bd
00000270: cda9 c83c 2b01 9b39 6c12 1e3d c957 c23d
00000280: 5049 333e 11a9 1b3e 4da8 163e b5b3 283e
00000290: 9105 da3d 2da6 8f3c 1aae 01bb f332 043d
000002a0: 4a28 c7bc bbb9 b83b 7104 adbc 5ee5 c63b
000002b0: dad9 54bd 04a9 95bd 1270 bcbd b997 3039
000002c0: 1170 2ebd edca f3bb 3a8b 2dbd 6fed f6b8
000002d0: 9b02 963d 0e0a a8bd 067c 9ebc d6e3 a1bc
000002e0: afeb 53be bacf 57be 523f 86be 6358 c2bd
000002f0: 533c ecbd 7afd 28be d725 13bd 458f b43d
00000300: e710 3c3e 7e87 5f3d 0b1d 703b 915b 9f3c
00000310: 9e32 c9bc 91f4 0ebd bbc1 e7bc 7528 0fbc
00000320: b529 0cbc 1150 5cbd e841 43bd d98c 4bbc
00000330: 9625 b93c 6c7f f33b dbb2 633d a782 8a3d
00000340: 0b09 cebd 893f 11be f8cb 00be 9dcd 78be
00000350: a7ae a3be 5ecf 8dbe 6107 96be 0902 a8be
00000360: 818c 92be 3323 38be c505 0cbe 2ce4 433d
00000370: 0520 423e a675 bc3d 890c 193d 9d34 1c3d
00000380: 2029 14bb 36fa 813c 4f51 8e3c 8a0f 3fbd
00000390: 8b3c 44bd 546a 40bd 5813 97bd 054d 53bd
000003a0: 04be 8bbb 1ce6 603d b99e c9bc 211a bebb
000003b0: 3c55 b5bd b4d3 23be cb4d 52be bbd6 b4be
000003c0: bfcd d6be f0bb a6be 1e66 b2be 7488 8bbe
000003d0: 55dc e7bd 5f70 06be 50f2 fabd fe19 2f3c
000003e0: 747e 073e 6b3f 573d a093 3c3d 3a0f c2bc
000003f0: 7e9a 5d3c 7448 9abc 9730 1abc 5eea 42bd

linear1.bias f4 [32]
0.31396934 0.3779285 -0.09034996 -0.17333682 0.07525977 -0.022066446 0.037307627 -0.19388954
0.24089141 0.14961877 0.30828235 -0.015762426 0.13505511 0.11559557 0.1739727 0.058269277
-0.043975122 0.19493015 -0.40336168 0.3655945 0.08463236 -0.102405444 -0.10191119 -0.08052875
-0.29127327 -0.013050985 -0.101225376 0.332565 0.20488948 0.38905793 0.024335146 0.3678949
00000000: 97c0 a03e d87f c13e 6609 b9bd 357f 31be
00000010: cb21 9a3d b1c4 b4bc e2cf 183d fb8a 46be
00000020: 3dac 763e aa35 193e 2fd7 9d3e 3420 81bc
00000030: e34b 0a3e 5fbd ec3d e625 323e c4ab 6e3d
00000040: 421f 34bd c59b 473e 6c85 cebe 342f bb3e
00000050: bb53 ad3d f2b9 d1bd d0b6 d0bd 42ec a4bd
00000060: c521 95be ccd3 55bc 404f cfbd f645 aa3e
00000070: 8cce 513e 9a32 c73e 805a c73c b85c bc3e

linear2.weight f4 [10, 32]
-0.20226346 0.06533403 0.49560332 -0.24401808 -0.9742627 0.42065573 0.42651743 -0.62999684
-0.9948573 0.59799993 0.9931154 0.31368375 -0.2436216 -0.8294564 0.26855206 0.27785784
0.33919093 -0.3254041 0.5175682 -0.3793957 0.22677356 0.34702402 -0.32952842 0.39137182
-0.21285471 -0.079942875 0.28030294 -0.2116315 -0.19780137 -0.5139509 -0.37134808 -0.6032633
-0.27843624 0.47558662 -0.25156397 -0.7717416 -0.19409305 -0.38444325 -0.6844989 -0.24041303
1.1541916 -0.36873496 -0.89871436 -0.01898369 0.3966806 0.65823674 -0.12080515 0.30797225
0.8590398 -0.16040233 -0.17455706 0.9876972 0.3100695 -0.9791554 -0.56973624 -0.31957796
-0.38186643 -0.37417892 0.7001966 0.038285702 0.03220891 -0.54354316 0.5282086 0.12372302
-0.0020560715 -0.07334293 0.42607224 -0.5852565 0.46962023 -0.05327443 -0.46782848 0.6009217
-0.70793706 -1.0628576 0.15371846 0.6258803 -0.45038947 1.0130005 0.9029947 0.62236303
-0.32550788 -0.7066886 0.6052155 0.09225359 0.6440473 -0.11082902 -0.8933117 0.22014673
-0.47576323 -0.82057005 0.08693713 1.3698235 0.018418437 0.09052461 -0.6276639 0.57849425
-0.104921974 -0.072522745 -0.79758674 -0.18968594 1.1419151 -0.64043623 -0.21940589 0.3783536
0.33790562 0.23127453 -0.5559627 0.5046551 -0.32198107 -0.01556206 0.1450239 0.7771155
-0.11312817 1.1771473 0.5021739 -0.43489128 0.23858336 1.1603303 0.745633 -0.5577159
0.19702609 -0.27915016 -0.3993399 -0.01965575 0.10359433 -0.4656103 -0.6064001 -0.54926366
-0.10383619 0.14379732 0.33730707 0.45856747 -0.20168225 0.5296308 -0.22977026 -0.31842366
0.043841995 -0.17032665 -0.08237604 -0.67802924 -0.9557339 -0.10029552 0.013292064 -1.0238521
-0.69063705 0.3212848 -1.2141628 -0.22323342 -0.54087406 -0.70242256 0.39878085 -0.4697218
0.5732528 -0.6998596 1.1555526 0.42986244 0.67787534 0.39984056 0.9562932 0.31012133
0.6487932 0.7645699 -0.9414124 0.51389897 -0.42648274 -0.22472715 -0.48843476 0.50800335
0.4872693 0.48008573 0.5793814 -0.8769493 0.8467681 -0.47219646 0.525625 0.5527058
-0.82715505 1.0028449 -0.77738243 -0.11290462 -0.3565182 0.43847018 0.68167955 0.25295198
-0.5353747 1.0017283 -0.700966 -0.16772138 -0.8735638 0.7389888 -0.34915313 -0.1735725
1.1051909 0.095455974 -0.23919232 0.28731233 -0.19953409 0.51267177 0.599551 -0.8880329
-0.10555043 0.74448824 -0.24232237 -0.7156336 -0.20983647 -0.02771087 -0.51999956 -0.94698614
-0.11034678 -0.3524181 -0.85985994 -0.5618949 0.75930905 -0.062212784 -0.3252723 -0.17886339
-0.4951606 1.228687 -0.19281091 0.3110902 -0.6322127 -0.66396105 -0.61835104 0.28631482
-0.22047995 -0.43824157 -0.22327256 -0.68514025 0.58950305 0.41006595 0.54610455 1.0690843
-0.9073368 0.40519777 -0.34021783 0.47739384 0.13717818 -0.90110564 -0.04637675 -0.17105511
0.32334074 -0.34722573 0.45148554 0.71187085 -0.2620807 0.11432014 -0.53104275 -0.55922085
0.2739198 0.31288287 -0.31965446 0.083246365 0.95682865 0.2765688 0.58081454 1.2384367
00000000: 271e 4fbe d9cd 853d b8bf fd3e e0df 79be
00000010: 4869 79bf 3060 d73e 7e60 da3e 7947 21bf
00000020: f8ae 7ebf 8616 193f d03c 7e3f 289b a03e
00000030: f177 79be 4157 54bf a87f 893e 6243 8e3e
00000040: 6faa ad3e 5e9b a6be 597f 043f 2740 c2be
00000050: 5437 683e 22ad b13e f3b7 a8be e361 c83e
00000060: 96f6 59be 17b9 a3bd de83 8f3e eeb5 58be
00000070: 718c 4abe 4992 03bf 5621 bebe 776f 1abf
00000080: 328f 8ebe 1780 f33e fecc 80be dc90 45bf
00000090: 54c0 46be bfd5 c4be 523b 2fbf d52e 76be
000000a0: 8dbc 933f d4ca bcbe 2512 66bf af83 9bbc
000000b0: b819 cb3e 3482 283f b168 f7bd 8aae 9d3e
000000c0: 08ea 5b3f 8240 24be 16bf 32be b9d9 7c3f
000000d0: 6ec1 9e3e eea9 7abf 3cda 11bf b99f a3be
000000e0: ff83 c3be 6194 bfbe 1640 333f 78d1 1c3d
000000f0: 7ded 033d a525 0bbf ae38 073f 7f62 fd3d
00000100: 28bf 06bb d134 96bd 2426 da3e 5fd3 15bf
00000110: 1072 f03e 4a36 5abd 3787 efbe 01d6 193f
00000120: 5d3b 35bf b80b 88bf 5f68 1d3e b139 203f
00000130: 7399 e6be 00aa 813f a92a 673f 2f53 1f3f
00000140: f8a8 a6be 8be9 34bf 67ef 1a3f 73ef bc3d
00000150: 49e0 243f 53fa e2bd 13b0 64bf 256e 613e
00000160: 3d97 f3be e110 52bf 180c b23d 6056 af3f
00000170: 43e2 963c f764 b93d 95ae 20bf 3318 143f
00000180: 55e1 d6bd ce86 94bd a52e 4cbf 083d 42be
00000190: 462a 923f a1f3 23bf f0ab 60be 90b7 c13e
000001a0: f701 ad3e 3bd3 6c3e 9253 0ebf 1431 013f
000001b0: b4da a4be 03f8 7ebc 2581 143e 0bf1 463f
000001c0: beaf e7bd c3ac 963f 788e 003f 12aa debe
000001d0: 324f 743e b485 943f cee1 3e3f 78c6 0ebf
000001e0: 35c1 493e c5ec 8ebe 4876 ccbe 1805 a1bc
000001f0: 4429 d43d 7964 eebe 093d 1bbf 8b9c 0cbf
00000200: 12a8 d4bd 9b3f 133e 83b3 ac3e 5bc9 ea3e
00000210: cb85 4ebe e295 073f e548 6bbe 6d08 a3be
00000220: aa93 333d 1c6a 2ebe c5b4 a8bd 5393 2dbf
00000230: faaa 74bf bd67 cdbd f5c6 593c 960d 83bf
00000240: 97cd 30bf 717f a43e b069 9bbf 4d97 64be
00000250: b976 0abf f7d1 33bf 012d cc3e 607f f0be
00000260: b2c0 123f 002a 33bf 26e9 933f ee16 dc3e
00000270: 3d89 2d3f e7b7 cc3e a2cf 743f 39c8 9e3e
00000280: 5017 263f daba 433f 6700 71bf e28e 033f
00000290: f25b dabe e01e 66be 1f14 fabe 820c 023f
000002a0: 5d7b f93e cccd f53e 5752 143f c07f 60bf
000002b0: cbc5 583f bcc3 f1be 5c8f 063f 217e 0d3f
000002c0: 6fc0 53bf 395d 803f 8902 47bf 8a3a e7bd
000002d0: 8e89 b6be 2a7f e03e 8d82 2e3f ec82 813e
000002e0: 510e 09bf a238 803f 8272 33bf 27bf 2bbe
000002f0: e1a1 5fbf 5f2e 3d3f 33c4 b2be fdbc 31be
00000300: e576 8d3f 6c7e c33d d5ee 74be 9a1a 933e
00000310: aa52 4cbe 753e 033f 2d7c 193f 2056 63bf
00000320: d32a d8bd c896 3e3f 5b23 78be c333 37bf
00000330: 5fdf 56be e801 e3bc b11e 05bf af6d 72bf
00000340: 7efd e1bd 2570 b4be c81f 5cbf 58d8 0fbf
00000350: 1462 423f d5d2 7ebd 178a a6be f727 37be
00000360: b185 fdbe 9e45 9d3f 3970 45be 3747 9f3e
00000370: b1d8 21bf 5af9 29bf 414c 1ebf db97 923e
00000380: 7fc5 61be 3361 e0be 90a1 64be 5a65 2fbf
00000390: ace9 163f 2af4 d13e 82cd 0b3f c1d7 883f
000003a0: 3947 68bf 1576 cf3e 0831 aebe f76c f43e
000003b0: 7078 0c3e dcae 66bf 8cf5 3dbd 1229 2fbe
000003c0: eb8c a53e 92c7 b1be 1d29 e73e 2b3d 363f
000003d0: 712f 86be ad20 ea3d 6bf2 07bf 1929 0fbf
000003e0: 373f 8c3e 2f32 a03e c0a9 a3be 127d aa3d
000003f0: b9f2 743f 6d9a 8d3e 43b0 143f 1885 9e3f

linear2.bias f4 [10]
-0.48164463 0.36028606 0.01380634 -0.30641624 0.22525492 0.5214246 -0.119429424 -0.046491
0.19665228 -0.36230317
00000000: 209a f6be 6a77 b83e fd33 623c 97e2 9cbe
00000010: 3aa9 663e 157c 053f 6a97 f4bd 596d 3ebd
00000020: 375f 493e cd7f b9be
